…
yolov3-custom
 compute_capability = 600, cudnn_half = 0 
net.optimized_memory = 0


Fig: Loss overtime /per iterations


  



  



(Testing: Initial output of detections[with coordinates and metadata stored in database])


Training Pics[screenshots]::
CUDA-version: 10010 (10010), cuDNN: 7.6.5, GPU count: 1  
 OpenCV isn't used - data increase will run slowly 
yolov3-custom
 compute_capability = 600, cudnn_half = 0 
net.optimized_memory = 0 
mini_batch = 2, batch = 64, time_steps = 1, train = 1 
   layer   filters  size/strd(dil)      input                output
   0 conv     32       3 x 3/ 1    416 x 416 x   3 ->  416 x 416 x  32 0.299 BF
   1 conv     64       3 x 3/ 2    416 x 416 x  32 ->  208 x 208 x  64 1.595 BF
   2 conv     32       1 x 1/ 1    208 x 208 x  64 ->  208 x 208 x  32 0.177 BF
   3 conv     64       3 x 3/ 1    208 x 208 x  32 ->  208 x 208 x  64 1.595 BF
   4 Shortcut Layer: 1,  wt = 0, wn = 0, outputs: 208 x 208 x  64 0.003 BF
   5 conv    128       3 x 3/ 2    208 x 208 x  64 ->  104 x 104 x 128 1.595 BF


….till 4000 iterations


Final output of training::
[yolo] params: iou loss: mse (2), iou_norm: 0.75, cls_norm: 1.00, scale_x_y: 1.00
Total BFLOPS 65.312 
avg_outputs = 516922 
 Allocate additional workspace_size = 52.43 MB 
Loading weights from backup/yolov3-custom_last.weights...
 seen 64, trained: 256 K-images (4 Kilo-batches_64) 
Done! Loaded 107 layers from weights-file 
…
